PyTorch/DemoStuden/net.pkl (torch_old, 6782 bytes, 3 tensors)

weight f4 [10, 1]
0	0x3d8b2c36	0.06795542
1	0xbe8b35c2	-0.2718945
2	0x3ed52069	0.4162629
3	0x3edc980d	0.43084756
4	0xbec171e7	-0.37782213
5	0x3e1cc3e1	0.15309097
6	0xbeb8dba4	-0.36105072
7	0xbc4da177	-0.012550703
8	0x3f2e9a88	0.68204546
9	0x3e532608	0.20619977

bias f4 [10]
0	0xbf9677e4	-1.1755338
1	0xbf3c9352	-0.7366229
2	0xbfc3d085	-1.529801
3	0xbf2907f0	-0.66027737
4	0xbf02638e	-0.5093316
5	0xbfd01ea2	-1.6259348
6	0xbfef6bff	-1.8704833
7	0xbee988d3	-0.456122
8	0xbf385984	-0.7201159
9	0xbf376dcd	-0.7165192

weight f4 [1, 10]
0	0xbe91ac9f	-0.28452012
1	0xbfb225c9	-1.3917781
2	0xc006032f	-2.0939443
3	0xbe4b8778	-0.19875896
4	0xbe747147	-0.23871337
5	0xbf3f47c1	-0.7471886
6	0xbf563d00	-0.8368683
7	0xbf8ae83d	-1.0852123
8	0x3e39a52f	0.18129419
9	0x3e959044	0.29211628
